assets/model.tflite (tflite, 282500 bytes, 12 tensors)

sequential/dense_1/BiasAdd/ReadVariableOp f4 [256]
00000000: a837 dd3c 906c 873c 28ad fa3b 7df0 b53c
00000010: 4488 943c f73a 243d 469c 063d 742d 183d
00000020: 4e14 db3c b41a 08bc 95a6 663c 9166 c33c
00000030: 4be0 663d 11d8 053d 0f77 4a3d 4441 2b3c
00000040: 73ff bc3c 2209 c13c 2e15 263d 70fe 863b
00000050: 4e47 393d 03ab 5e3d 4c8b 7a3d a968 f73c
00000060: 9e6e 4b3d 7e99 433d 957c ed3c 4e57 383d
00000070: 61d8 863c e0e4 773c 18ac b73c 9707 3f3d
00000080: ac4d 663d 1800 b03c 7bc3 d73c 74a1 253d
00000090: f0b9 653c 8540 043d 7f32 e23c 939b c33c
000000a0: e015 143d 7dc5 1e3d d40a c73c e5d0 db3c
000000b0: 245a 6d3c 94b1 893c 22ec d83b 32c2 ed3a
000000c0: f1d7 693d 4acb 1c3d 3cad 6a3d 2254 843c
000000d0: f260 c73c f312 9d3c 5637 913c 6203 153d
000000e0: 14b5 a13d afb3 133d 46c3 053d b063 0c3c
000000f0: 8cfa c13c b9bf dd3c d383 d53c 0eaf d63c
00000100: bb2e 143d 0cbe 383d 96bc 453d 1ea1 f73c
00000110: 0d12 143d 7310 453d af24 0d3d 33d6 343d
00000120: fc7a 053d bc1f a7bb 5d74 623d 91ee f5bb
00000130: b5ec cf3c b7b6 5b3d bc9f 083d c2e0 4c3c
00000140: ad38 873c 695f ff3c 8a83 543d 362b 54bc
00000150: b1be 8d3d 475c 8a3b 9009 233d 1d02 a93c
00000160: 172f 9f3c 9731 4e3d 6998 1a3d 38e1 733c
00000170: d758 3a3d 4e57 983b b883 2a3d 4cb7 273d
00000180: 833a 153d 579e ed3b b15b 223d d190 6c3d
00000190: adfe 263d dfae b13c 0c88 f13c a88e 603d
000001a0: abac 0b3d 66eb 793d 062c 6e3d b288 203d
000001b0: 9b9e d73c 12b0 323c cdc1 3a3d 7887 903c
000001c0: 15e1 523d f827 383d 803d b23c 83fc 813c
000001d0: ff6a 7b3d 095c 473d 6f90 693d 7a8e b73c
000001e0: 639d 0c3d d5e8 503c 85c0 6739 0b98 623d
000001f0: ea14 0b3d 0807 703d 7985 393d 499f f73b
00000200: 6640 ef3b 1375 993c 27eb 433d d32e 2b3d
00000210: f7e7 363d 6993 513d cd91 fb3c b3c9 383d
00000220: 5b89 b93c 4d98 ec3c e7b8 b73c f828 a23c
00000230: cf4c e13b 1492 783c 0430 853c bbfa 163d
00000240: 41b0 42bb ee04 043d 35db be3c ae0c d43c
00000250: 8752 ac3c e08f 853d 0648 2c3d 3d6c 11bc
00000260: 9e2a 2e3d a2ef 713d 8064 b13c 9802 f63c
00000270: 7114 023d 4b99 563d c1e0 463d f151 a03c
00000280: 3c47 e13c 56ab 173d 81f1 ca3c cc4b 203d
00000290: e0d5 fd3c 1ffd 6d3d e4a4 b33c 6190 3d3d
000002a0: 0c14 2b3d 7d50 063d 2df4 153c 9937 c43c
000002b0: b16b bb3c 4201 343d 365b 043d 9c50 263d
000002c0: abd5 2e3d c75a 0f3d 27a6 e73c 998e 173d
000002d0: e1fd 0e3d e454 063d 3810 453d 05ad 253d
000002e0: 9975 233d 0fa6 cb3c 1566 b83c 7c92 a73c
000002f0: 316e ca3c d4b2 bf3c 791f 113c 2db4 0e3d
00000300: d821 a13c 008e 903c 3393 3c3d b30d dc3c
00000310: b61d d73c e757 603c 8cc2 323d 44fb 4d3b
00000320: 5258 623d 8a86 543d 3e67 d43c a98e 473d
00000330: cad6 c23c 0b20 813c 8a0c b93c fad7 1c3d
00000340: ffcf 983c 131e 003d 0976 143d 6ffc 2a3d
00000350: e171 783d 8316 3d3d 3174 d93c 4365 0c3d
00000360: 5933 463d c595 6a3d c104 2f3d 6bbc 0f3d
00000370: f83a 273d f69c 873d 02b5 333c e0ca a7b7
00000380: 8bf1 da3c 04af c63c 5f87 3e3d 871e 703c
00000390: 5294 533d 8804 353d 1db8 703d a71a f73c
000003a0: 614d 493d 76cb e93c 26f0 873d 1da5 093d
000003b0: c536 bf3c 12b2 f43c 0370 343d 4b31 093d
000003c0: 484b 523d c324 2a3d 59a9 5b3d 4b63 3f3d
000003d0: 513e 423d a910 423d b634 353d 40dd 963c
000003e0: 4199 3b3d 68ac 1a3d 0a68 bc3a 832c 543d
000003f0: 7cbb 4f3d d1ad da3c 7e9a 5e3c d48f 153d
0.027004078 0.016531259 0.0076500364 0.0222094 0.018131383 0.040095296 0.032863878 0.037152722
0.02674308 -0.008307148 0.014077802 0.023852618 0.056366246 0.03267676 0.04942995 0.010452572
0.023071026 0.023563925 0.040547542 0.004119687 0.045234017 0.05436231 0.061168 0.030201273
0.04966604 0.047753803 0.02899007 0.045005135 0.0164606 0.015130252 0.022420928 0.046638098
0.056226417 0.02148442 0.02633833 0.040437177 0.014021382 0.032288093 0.027611969 0.023877895
0.036153674 0.03876256 0.024297155 0.026833007 0.014486823 0.016808309 0.006619946 0.001813954
0.057090703 0.03827981 0.057294115 0.016153399 0.02433822 0.019174075 0.017726582 0.03638018
0.07895866 0.03606003 0.03265693 0.008568689 0.02367904 0.02706896 0.026063835 0.02620652
0.03617738 0.045103118 0.048275553 0.030228194 0.036150027 0.04811139 0.034458812 0.04414959
0.03258799 -0.0051002186 0.055286754 -0.007505246 0.025381425 0.053641047 0.03335546 0.012504758
0.016506517 0.031173425 0.051883258 -0.012949755 0.06921137 0.004222426 0.03980404 0.02063089
0.019431634 0.05034026 0.037743006 0.014885239 0.04549488 0.0046490794 0.041629523 0.04094629
0.036432754 0.0072515416 0.039638225 0.057755295 0.04077022 0.02168983 0.029483818 0.054823548
0.034100216 0.06101551 0.058147453 0.039192863 0.026320746 0.010906236 0.04559498 0.017642722
0.051484186 0.044959992 0.021757841 0.015867477 0.061381336 0.048671756 0.05702251 0.022406805
0.034329783 0.012750824 0.00022101596 0.05532078 0.033955492 0.058600456 0.045293305 0.00755683
0.007301378 0.018732583 0.04783168 0.041792702 0.044654813 0.051165972 0.030709172 0.04511423
0.022648504 0.028881216 0.022427035 0.019794926 0.0068756114 0.0151715465 0.016258247 0.03686021
-0.0029707106 0.032231264 0.023297885 0.025884952 0.021035446 0.065215826 0.042060874 -0.008875904
0.04252111 0.059066422 0.021654367 0.030030534 0.031757776 0.052392285 0.048554186 0.019570323
0.027499788 0.037028633 0.024773361 0.039134786 0.030985773 0.058102723 0.021929212 0.04628027
0.041767165 0.032791603 0.009152454 0.023952292 0.0228785 0.043946512 0.032313548 0.04060422
0.04268424 0.03499868 0.02827747 0.037001226 0.034910087 0.0327958 0.04811117 0.040448207
0.03990707 0.024859456 0.022509614 0.020455591 0.024710746 0.023400702 0.008857601 0.034839798
0.019669458 0.017645836 0.046038818 0.026862001 0.026259284 0.013692833 0.043642566 0.0031430284
0.05526001 0.05188612 0.025928136 0.048720036 0.02378406 0.01576235 0.022588987 0.03829191
0.018653868 0.03127868 0.03624538 0.041744646 0.06065548 0.046164047 0.026544662 0.03427626
0.048388813 0.057271738 0.042729143 0.0350918 0.04082772 0.06621735 0.010968449 -2.0002422e-05
0.026726505 0.024253376 0.04651582 0.014655716 0.05165512 0.044193774 0.058769334 0.030164076
0.04914606 0.0285394 0.066376016 0.03360473 0.023341546 0.029870067 0.044052135 0.033494275
0.051341325 0.041538965 0.0536283 0.046725553 0.04742271 0.04737917 0.044239722 0.018416047
0.04580045 0.037762076 0.0014374268 0.051800262 0.05071591 0.02669421 0.0135866385 0.03651412

sequential/dense_2/BiasAdd/ReadVariableOp f4 [64]
00000000: 0000 0000 704f 183d 29f5 7f3c 07e4 7e3c
00000010: b721 1a3c 93af 3a3c f8ce 313c 65de 853c
00000020: 10d3 333d 4208 413c a146 323c d04f a03c
00000030: 1341 4c3c 2f88 bc3c e3a9 223d ab4b 053c
00000040: 2b18 373d 56d6 d13c b18a a13c a5b8 b83c
00000050: 67b7 373d ae28 663d c224 023c 2cd5 44bc
00000060: c004 e43c 0000 0000 4e07 003d 4168 6e3c
00000070: 9a77 9a3c 38b8 bcbb 0c15 143d 33ba d8bb
00000080: 9023 133d b2b8 3fbc 0000 0000 573e 8c3c
00000090: 9498 cb3c 32cf 903c 2959 1f3d 3b30 41bb
000000a0: 4d70 a53c 8ec8 e93c 483d 1a3d d8ec dcb9
000000b0: 24af 563d f3a1 553c bc6b dc3c f45b cd3c
000000c0: 3a31 e33b 4103 6a3c 0201 f83c 116b 093c
000000d0: 0777 2a3d 70b9 d83c 4b3b 2b3d bf98 fa3b
000000e0: a9eb ac3c f69e 383d 4144 373c 26b3 df3c
000000f0: d56b 8f3d 07d8 ed3c 38a2 de3b 03a1 ef3c
0.0 0.037185133 0.015622416 0.015557296 0.009407452 0.011394399 0.010852568 0.016341398
0.043902457 0.011781754 0.010881097 0.019569308 0.012466687 0.023014156 0.039712798 0.008135716
0.044700783 0.025614899 0.019719454 0.022548983 0.04485264 0.05619114 0.007943334 -0.012013715
0.027834296 0.0 0.031256966 0.014551223 0.018855859 -0.0057592653 0.036152884 -0.0066139936
0.035922587 -0.01170175 0.0 0.01711957 0.024853028 0.017676923 0.03890339 -0.002947821
0.02019515 0.028538015 0.0376561 -0.00042138132 0.05241312 0.0130391 0.02690684 0.02506826
0.0069333585 0.014283002 0.030273918 0.008387343 0.04161742 0.026455611 0.041804593 0.0076476033
0.021108465 0.045073472 0.011185707 0.027307104 0.07002989 0.029033674 0.0067942403 0.029251581

sequential/dense_3/BiasAdd/ReadVariableOp f4 [32]
00000000: dcb9 7cbc 7d3b ce3c d35c 353d 5ebc 563d
00000010: 9a3f 8a3c 981a 873c 3b93 34bc 6df8 9f3c
00000020: d3ba 603d 636d e23c 9f06 c53c 0690 8bbc
00000030: 940d 713b 9663 24bb 6b62 c53c 3394 0d3c
00000040: d64c 343c 5ff1 af3b 2009 abbb d659 253c
00000050: 7e5b 8abc 1af1 36bc a478 013d 26ce 21bc
00000060: d11c 42bc d808 863c 1777 583c 16d3 c23b
00000070: 0076 4f3c ec9f 753d 2c87 993c 5ae9 2c3d
-0.015425172 0.02517485 0.044277977 0.052425735 0.01687603 0.016492173 -0.011021431 0.019527638
0.05486567 0.02764005 0.024051009 -0.01703645 0.0036781775 -0.0025083772 0.02409478 0.0086412905
0.011004647 0.00536935 -0.0052195936 0.010092219 -0.01688933 -0.0111658815 0.031609192 -0.00987581
-0.011847691 0.016361639 0.013211987 0.0059455736 0.012662411 0.059966967 0.018741213 0.04221473

sequential/dense_4/BiasAdd/ReadVariableOp f4 [16]
00000000: 6c33 fcbc 0000 0000 0cbb 2bbd 6903 f03c
00000010: bd2c 15bb bd1b a13d 74c1 933c d822 1a3d
00000020: e783 463d ae62 39bc 40d6 f93b 7988 473d
00000030: 0a70 de3c c2aa cb3c 1940 1cbd 8cca 563d
-0.030786239 0.0 -0.04192643 0.029298501 -0.0022762262 0.07866619 0.018036582 0.037630886
0.048465636 -0.011315031 0.0076244175 0.048714135 0.027153034 0.024861697 -0.038147066 0.052439258

sequential/dense_5/BiasAdd/ReadVariableOp f4 [41]
00000000: 3e12 07bd 1877 3b3d f449 0a3c f3c0 ad3a
00000010: 59e3 2ebb ec07 51bd 606c cfbc 8593 8e3d
00000020: 4af0 ebbc 94ab 353d 1aaf 013d a8cc 52bb
00000030: f341 ae3c 5f72 b7bc d63b 06bd adfd a23d
00000040: 5b84 95bd f796 333d be39 183d e690 42bb
00000050: 6c62 7cbc d73f b8bc 56cc 94bc a2dc 2ebc
00000060: 6377 b2bc 182a 853d 7763 273d 7862 acbd
00000070: 6d2f 3b3d 6e22 afbc f2a0 b8bc 9721 c03b
00000080: de69 51bd cba5 6b3b 65f6 08bd bb91 bfbc
00000090: 9898 d9bc 7e57 6e3c 6f60 5f3d ef8d 583c
000000a0: 8c1f 1fbd
-0.03297638 0.045767874 0.008440483 0.0013256356 -0.0026685803 -0.051032946 -0.025320232 0.06961731
-0.028801102 0.044353083 0.03166113 -0.0032165442 0.021271681 -0.022393404 -0.032771908 0.07958541
-0.073006354 0.043845143 0.037164442 -0.0029688417 -0.015404325 -0.022491379 -0.018163841 -0.01067272
-0.021785444 0.06502169 0.04086634 -0.08417219 0.045699526 -0.021378722 -0.022537682 0.005863379
-0.051126353 0.0035956975 -0.033438105 -0.02338492 -0.02656202 0.014547227 0.054535326 0.013217433
-0.038848445

sequential/dense/BiasAdd/ReadVariableOp f4 [128]
00000000: d5ae a73d a7ce c13d 04c4 b83d 55ac 9d3d
00000010: 0238 a93d 0ddd a93d fa9f 433d 259b 933d
00000020: 5e65 713d 65c8 b13d 7c6d b13d 258f 943d
00000030: 6d4e 823d 59bc 943d 7aa6 893d 6070 9a3c
00000040: 656e ab3d d9d6 b53d d293 a93d e807 9f3d
00000050: 8777 783d 1166 ac3d 130d c93d 6a58 753d
00000060: 81d1 893d 384f bc3d 78c3 5c3d 9bdf 873d
00000070: fe39 9c3d e12d a53d 56bf be3d f74f 783d
00000080: 97d8 263d 013a 723d 08e4 8f3d 5ce9 873d
00000090: ab2c d03d 5c7b 7c3d 8f05 813d b0e4 a73d
000000a0: 895a b13d 2c9c be3d c221 8f3d 547d b33d
000000b0: 57ed 803d dcc8 a73d 122e 7b3d c61d ad3c
000000c0: a5c0 a43d d8ba 4a3d a868 a43d 6d31 853d
000000d0: 6fdd 6d3d a4fe 443d b72b 9b3d c395 633d
000000e0: fe04 ab3d 23e6 573d 4510 b83d 1cd2 e73d
000000f0: b8fe d53d 2049 893d 51aa c83d cfad a83d
00000100: 7bc2 7c3d 588d 873d d29c b73d 14cc 923d
00000110: 8d10 953d 1a29 213d 4705 8e3d 93ca d33d
00000120: 40b6 463d 8c49 bd3d 2e78 9f3d ef9d 953d
00000130: 9afe cf3d 2057 293d fdf3 623d 88a6 883d
00000140: d4eb b03d c29a 973d a60a 893d c5d4 c03d
00000150: 2302 853d df8a 483d d49f 9d3d e2e0 9f3d
00000160: 17db f23d 3991 933d 770b a53d 986c 963d
00000170: ba4b af3d bcfc df3d 4cda a73d 14a8 583d
00000180: c20a 88bb 93ce ab3d 6c74 ae3d 2da1 a23d
00000190: d96a 963d 59ef 863d 67ed 073d de2e b73d
000001a0: 92f9 a73d d0ad cb3d b486 983d 411d df3b
000001b0: 66cd b93d da8e e23d 8acb 2c3d 78e2 623d
000001c0: 1ec9 973d ed29 df3d de30 ac3d 9963 2a3d
000001d0: e2db bd3d ab53 943d b756 a43d 2e18 8d3d
000001e0: d346 633d 69ae e43d 975b a43d cd12 b63d
000001f0: 9788 6a3d 420b 9a3d d8d5 8b3d 7b8e e83d
0.081876434 0.09463244 0.09021762 0.07698885 0.08262636 0.08294115 0.047759987 0.07207326
0.058934562 0.086808 0.086634606 0.07253865 0.06362615 0.07262487 0.06721206 0.018852413
0.083706655 0.088788696 0.082801476 0.0776518 0.060660865 0.08417905 0.09816947 0.05989877
0.06729413 0.09194797 0.05389735 0.06634446 0.07628249 0.08065391 0.09313838 0.060623135
0.0407339 0.059137348 0.070259154 0.06636307 0.1016477 0.061641082 0.06299888 0.081979156
0.08659846 0.09307131 0.06988861 0.08764139 0.06295269 0.08192608 0.061323233 0.021132361
0.080445565 0.049494594 0.08027774 0.06503568 0.058072504 0.048094407 0.07576697 0.055562746
0.083505616 0.05270971 0.08987478 0.11319372 0.10448974 0.067034006 0.0979811 0.08236276
0.06170891 0.06618756 0.08965458 0.07167831 0.072785474 0.039345838 0.069346 0.10341372
0.04851365 0.092425436 0.07786594 0.07305514 0.10155983 0.041342854 0.055408467 0.06672388
0.08638731 0.074025646 0.06691484 0.094155826 0.06494548 0.048960563 0.076965004 0.07806565
0.11858194 0.072054334 0.08058827 0.07344931 0.085593656 0.10936877 0.08195934 0.052894667
-0.004151673 0.0838901 0.085182995 0.07940898 0.07344598 0.06588621 0.03318539 0.08944486
0.08201899 0.099452615 0.074475676 0.0068089073 0.0907238 0.11062403 0.042186297 0.05539176
0.07411407 0.108966686 0.08407758 0.04159889 0.09270455 0.07242521 0.08024352 0.068893775
0.055487465 0.111660786 0.08025282 0.08890305 0.05725917 0.075216785 0.06827897 0.11355301

sequential/dense/MatMul f4 [128, 132]
00000000: b1c7 74bd 763b 59bd d92b 333d 3595 503e
00000010: 2b0c 033e 0e0d 0d3e f415 16be 29b3 21bb
00000020: 9733 cd3c 2954 a5bd 902a 8abc 7861 353d
00000030: f5d2 073e 5c5b 483e 433d 1b3e 77c1 20bc
00000040: ce17 603d 45b3 9dba 15e0 86bc 02d3 843d
00000050: 1471 15be e29a 10bd 40af 013b 0ab4 b53c
00000060: 59e2 153e 96da a2bd 0ebc f43b 88b7 0a3e
00000070: 9a74 1cbe a94e cd3c b269 4a3e d1ad 98bd
00000080: 503b 1fbd d253 483d fd48 f03c 1a4d 03bd
00000090: 6898 e43c 893c e5bd cbe6 c6ba a506 18bc
000000a0: 0676 12be 08b9 86bd eaef 903d e3d8 97bd
000000b0: 5129 cd3b d09c 08bd 8262 de3d 3601 1f3e
000000c0: f52e 3ebc b0bd d7bd 8b55 093e 2d27 fc3d
000000d0: 4d4d fcbd 5926 923d c9b2 063d c3ae f3bd
000000e0: 7003 f1bd 09ef 7c3d 841b 57bb 8689 ab3d
000000f0: d769 163e 0634 0f3d b2d7 eb3d 3017 8bbd
00000100: 6b07 803d cb8d 2e3e 87c9 fd3d e40f ddbd
00000110: 6f88 213e 63c4 04bc 746c 893d 9b71 133e
00000120: a025 c83d 0547 9a3d d1ff 1dbe 7af2 adbd
00000130: 6c37 c13d 4714 23bc 00ae b63d 6db0 8fbd
00000140: f8f2 17be cc88 64bd 3e62 13be 6455 143d
00000150: 6292 91bd ed20 9b3d 9a64 113e 6d1e 253e
00000160: f9f4 fa3d e313 86bd c263 00be 2c9e 9dbd
00000170: 095b 4f3e 9595 433e 9a52 15be e258 f63b
00000180: 6300 dd3d f186 ccbd ffb2 333e 0680 15be
00000190: 24fb 303d 8039 2e3e 6ab0 00be 756f 333e
000001a0: 3732 a23d e9cb d03d c2ad 373e 5c86 83bd
000001b0: 0736 1cbe fd61 0bbd d0fb 32bb 44db fa3d
000001c0: 81bd 4bbd bea3 3bbd a2b3 9dbd 7baa cc3d
000001d0: c629 9abd 4c1a c8bc d511 cb3d 30eb 3b3e
000001e0: 98cf cfbd bca1 3b3d 556e 2fbd cd98 81bd
000001f0: a325 923d 580b 583d bd5d 543c 3eb0 113e
00000200: ede6 fabd 9f1b 303e f228 003e 71dd 983c
00000210: a1a3 d0bd ec7a 143e 409c 81bd 7d47 00be
00000220: bdea 34bc ca40 bc3d d000 c8bd 122d 253e
00000230: 36fa 193e 389f 093e 3f2c e2bb d206 bc3a
00000240: 7b9b 183d 64fa dcbd 9ef5 79bd 74bb 633d
00000250: a359 00be 985f e3bd 52e7 d83d 3bcc 453d
00000260: 1d3f 2fbd 5849 433e af1f 7a3d 9fb3 3c3e
00000270: d164 e2bc adb0 9a3d 32e5 d0bd 4d00 433d
00000280: 1366 de3d 6823 a6bd 09c6 bdbd 6377 59bd
00000290: 0b95 d7bd 8e69 a7bd 4345 e73d f4c5 e8bd
000002a0: 485c 01be 0c4e c6bd 5a19 31bd 434d 023e
000002b0: e3aa a63d 5192 2dbe e2d2 c73d 7ad3 debc
000002c0: 2bef 91bc 57e7 85bd 5b72 d8bd 8dbd 1bbe
000002d0: c6c4 453c 7220 2a3e 94f2 ee3d a28b 96bd
000002e0: 8219 04be def4 113e d99a e93d 1ec4 84bd
000002f0: 105f 723e e428 583d 4b48 133d 76d8 5d3d
00000300: 8b3e 09be 1d7e 84bc a2e6 89bd 19d3 92bc
00000310: 9bcb ffbd da26 ebbd 84d1 073d 2a47 96bd
00000320: 3996 15be d356 eebd 2a50 ebbd 7f06 e33d
00000330: 0071 29be d5ad edbb 4bb6 fd3d 7167 b2bd
00000340: a51a 0fbe 7939 05be 74f0 3cbd 546d 2ebc
00000350: 6db9 e6bc 61a9 8c3d fc2c 013d 1909 cdbc
00000360: 1350 aabc 2055 92bd ad77 b8bd a82c 07be
00000370: c77d a03d c25c a63d fd32 2c3d 433e 373e
00000380: e38e 06bc 2d3f a5bd eb6d 5e3e cc3b 0e3e
00000390: bcb1 a5bd 679a 13be d5ad ffbd ce9b cb3a
000003a0: 986d 4fbd ff53 14bd e04d 2fbe 1c8e 0bbe
000003b0: af22 5c3e f42b 61bd d676 15be c795 80bc
000003c0: 6edd e93d 442a d93d 8158 023e fed7 2b3e
000003d0: 1c62 06bd 0b2c 873d ecfc c7bd 6026 fc3c
000003e0: 13e8 9fbd eebe a4bd ad47 f9bd 1481 10bd
000003f0: 5d85 013e 511f 8e3d 31e7 2e3e e1fa cdbd
-0.059760753 -0.053035222 0.04374299 0.20369418 0.1279761 0.13774511 -0.14656812 -0.0024673438
0.025049014 -0.08072693 -0.016865999 0.044282407 0.13264067 0.19566101 0.15160088 -0.009811751
0.054710202 -0.0012031576 -0.016464273 0.06485559 -0.14593917 -0.035303958 0.0019788295 0.022180576
0.14637126 -0.07951848 0.007468707 0.13546574 -0.15278855 0.025061922 0.19766882 -0.07455028
-0.038874924 0.048908062 0.029331679 -0.03205595 0.027904704 -0.11193187 -0.0015174983 -0.009278928
-0.14302835 -0.06578261 0.0707701 -0.07414415 0.006261029 -0.033352673 0.108586326 0.15527806
-0.011607875 -0.10534227 0.13411538 0.1231216 -0.123194315 0.071362205 0.032885347 -0.118985675
-0.11768234 0.0617514 -0.0032822797 0.0837584 0.14688812 0.034961723 0.1151575 -0.06791532
0.06251415 0.17046277 0.12391954 -0.107940465 0.15774702 -0.008103463 0.06710139 0.14398806
0.097728014 0.07533077 -0.15429617 -0.08493514 0.09434399 -0.009953565 0.089199066 -0.070160724
-0.14838779 -0.055794522 -0.14392945 0.036214247 -0.071079984 0.075746395 0.14198533 0.16124888
0.12253756 -0.06546762 -0.12538055 -0.076961845 0.20249571 0.1910003 -0.14582291 0.00751792
0.107910894 -0.099866755 0.1754875 -0.14599618 0.043208256 0.17014122 -0.12567297 0.17522986
0.07919734 0.10195143 0.17937377 -0.064221114 -0.15254985 -0.034028996 -0.0027310736 0.12248853
-0.049741272 -0.045810454 -0.07700278 0.09993454 -0.07527499 -0.024426602 0.099155106 0.18351436
-0.10147017 0.04580854 -0.04282983 -0.063279726 0.07136085 0.052745193 0.012961802 0.14227387
-0.12251077 0.17198037 0.1251562 0.018660279 -0.1018746 0.14500016 -0.063286304 -0.1252727
-0.011042294 0.09192045 -0.0976578 0.16130474 0.15036854 0.13439643 -0.006902247 0.0014345294
0.037257653 -0.10789946 -0.061025254 0.05559869 -0.12534194 -0.111022174 0.10590996 0.048290472
-0.0427848 0.19070947 0.061065372 0.18427895 -0.027635964 0.075532295 -0.101999655 0.04760771
0.10859313 -0.08112222 -0.09266288 -0.05309237 -0.105264746 -0.0817443 0.112925075 -0.113658816
-0.12632859 -0.09682855 -0.043237068 0.12724786 0.08138063 -0.16950347 0.097570196 -0.02720045
-0.01781424 -0.06538265 -0.105686866 -0.15209027 0.01207084 0.1661394 0.11667362 -0.073508516
-0.12900355 0.14253566 0.11406488 -0.06482719 0.23669076 0.05277337 0.035957616 0.05416151
-0.13402764 -0.016173417 -0.06733443 -0.017922925 -0.124900065 -0.1148202 0.033158794 -0.07337792
-0.14608087 -0.11637654 -0.114898995 0.110852234 -0.16547012 -0.0072533884 0.12388285 -0.08711136
-0.13975008 -0.13010205 -0.04612775 -0.010646183 -0.02816459 0.06868244 0.03153704 -0.025028752
-0.020790135 -0.071451426 -0.09007201 -0.13200629 0.0783649 0.08123161 0.042040814 0.17894845
-0.008212778 -0.080686904 0.21721618 0.13889998 -0.08090541 -0.14414369 -0.12484328 0.0015534104
-0.050641626 -0.036212917 -0.1711955 -0.13628429 0.21497606 -0.054973558 -0.14596114 -0.01569642
0.114191875 0.10603765 0.12729074 0.16781613 -0.03280841 0.066001974 -0.09765038 0.030780017
-0.078079365 -0.080442294 -0.12171874 -0.03527935 0.1264853 0.06939567 0.1708038 -0.10057617

sequential/dense_1/MatMul f4 [256, 128]
00000000: 83f7 eb3c 65e1 a9bc 9e74 69bc 19aa fd3c
00000010: 3ff2 873b 5b87 35bd b502 07bd 4cd6 b43d
00000020: fc51 38bd 3afd 4d3d bdbe 003e 465c 1dbc
00000030: 2760 8bbd 622b f8bb 5930 75bd b6de cebc
00000040: ec14 073d 6323 bc3d 54cd 12be 5a74 dd3d
00000050: ae1e 03be 0d3c 79bb 68f1 e0bd 05db 033e
00000060: bb4f dfbd 7a94 aa3d f6ee 23bc c3f4 4ebe
00000070: bca9 5c3d fe6f e83c a926 103c 5b88 4a3c
00000080: 0eee c43d 18fc 0d3d 7e8b 9dbd d638 223e
00000090: c249 c03d 5abc 353d 0b1f 4d3d c920 4e3c
000000a0: 18b8 c7bd 77d1 32bd 3e51 083e f412 943d
000000b0: a4ac 803d 48ec a3bc b0ce 713c d05c f8bc
000000c0: 6429 b6bc 9a33 2dbd beb9 aabc 21bd 453e
000000d0: 944a 4a3e fff1 03bd 10c2 9f3d 4155 fd3d
000000e0: 0185 c6bd 6984 73bd 7079 963d f63b e5bd
000000f0: 8ebe 59bc 0bd9 953d 1a4e c43d 3723 5d3c
00000100: 6363 3dba 9eb5 63bd 835f a2bb ac0e 10bd
00000110: 3d6d 073d 465d bdbc 1df9 d93c 80a2 ee3d
00000120: 39cc eabd da6b 883d 2e66 2c3e 204d d23d
00000130: 0f3d ef3d 1bf6 a73d 3693 46bc c341 35bd
00000140: a5c9 a33d ade7 353e 5303 673d fa62 1dbc
00000150: 2e70 a83c 4098 643d b2cb 5dbd 3b3a 34bd
00000160: 84f2 7d3d 66ad 8ebc 051a edbc c789 72bd
00000170: 1de4 373d 11cf 053e f391 1f3e 462a 3f3e
00000180: f3ce 583b e9fb 6c3d 7d04 13be 9550 113e
00000190: 78a1 7d3d e79d 7fba 328d c1bc 361f 803d
000001a0: 589d 61bd e7f0 17bd ef3f 403e 09b5 f23d
000001b0: 74f0 14bd 2bbf 72bd 718d bb3d 6d30 f3bc
000001c0: 3cb9 f5bd be06 c0bc fe13 d43d 7079 bbbd
000001d0: 114c cc3d 09a8 55bd b9a4 17bc 6a09 63bd
000001e0: b4bc a43c a969 3bbd 3968 353d 84c8 a1bd
000001f0: 59e5 84bd 27cd a73c c314 903b 7e5b 46bd
00000200: 0558 4d3d 3ff8 e03d 4991 a43c 51c7 a1bd
00000210: ba7e febd cefa 0f3d 536b 9d3d 554d 033e
00000220: 117e f33d 135b 05be 644e 92bc 74da 633c
00000230: 0cb6 aabd 19ae 9d3d 01e2 a03c 421a 26be
00000240: ee2b fb3d c6bf cc3d fc2c d03d 6e31 923d
00000250: c562 bf3d 4306 dc3d fcf3 af3d 97f9 00bd
00000260: 8a5d 52bd f072 303e ac0f 713c 892a b33c
00000270: 3337 363d 7d6b f83d 79cb c43d 001a 5e3d
00000280: 114b 02be 5a2f edbd e75c c53d abae 9e3c
00000290: 381e 943b 2d17 023e 75c8 f83b 3676 01be
000002a0: 652c d33d 75e5 0cbe c07d c9bd 6627 eebd
000002b0: 8aa3 f93c 40ae 4fbd c1f8 2ebe 04a6 2b3e
000002c0: 203f 50bd d8ec 103e 2270 e5bc 3f3e cf3a
000002d0: 6027 853d e106 413d fd2e dcbd e2ca a5bd
000002e0: 7996 e13d 1a95 9fbd 63f0 ff3d 206b 1dbd
000002f0: 87bd fb3b 8d52 e9bd 9232 dd3d 325c d7bd
00000300: 6109 8b3d 988a e8bd 1cf6 063d a225 633d
00000310: 84a4 33bd c88b 01bc cb9e 343e 40b8 81bd
00000320: 3dc3 7f3d d92d 8d3d 2a6b 2a3d 7f5d 17be
00000330: 75bb 9abd ca02 263e 49e6 e8bb cd8b de3b
00000340: c239 ba3d 2580 62ba c041 22be 82bb febc
00000350: 96fd 85bd c5e5 afbd 0ef5 b23d 055a 053d
00000360: 815d 6ebd fb36 133e 5c59 1dbd a700 0c3e
00000370: ad06 cebd 9b25 ac3c 1a23 1ebe 94fe 68bc
00000380: 2e31 a33d cab6 f23d 6557 1dbd 1a77 23bc
00000390: 278f bcbc 495d 44bd c8d3 a53d a569 f3bc
000003a0: 7eb1 26be 7838 28ba fa65 c3bd 9b4a 0c3e
000003b0: db21 9f3d 7078 223e 9629 9dbc eeae f53d
000003c0: 8b55 1f3e 2fc7 f63b 6b5c 263e 0fe4 093e
000003d0: c0a9 6d3d 032e b93c 9730 173e 11eb e33d
000003e0: 8d3f 9a3d a6ff e83d 7d5e a2bc 665c aa3d
000003f0: 13f0 3abb e96a 84bd b45f fb3d 7ca7 97bc
0.028804546 -0.02073736 -0.014248995 0.030964898 0.004148751 -0.04431854 -0.032961566 0.088299364
-0.04500006 0.050290324 0.12572761 -0.009604519 -0.06805449 -0.007573531 -0.05986056 -0.025252681
0.032978937 0.09186437 -0.14336139 0.10813208 -0.12804672 -0.0038030178 -0.109835446 0.12876518
-0.10903879 0.08329101 -0.010005703 -0.20210557 0.05387281 0.028373715 0.00879828 0.012361611
0.09615718 0.034664243 -0.07692622 0.15841994 0.09389068 0.04436908 0.050078433 0.012581059
-0.0975191 -0.043656792 0.13312241 0.072301775 0.062829286 -0.020010129 0.014758751 -0.030317694
-0.022236533 -0.04228554 -0.020840522 0.19310428 0.19755012 -0.032213207 0.07800686 0.123697765
-0.09693337 -0.059452448 0.07347381 -0.11193077 -0.013290061 0.07316788 0.09585209 0.013497165
-0.00072245876 -0.055593126 -0.0049552335 -0.035170242 0.033063162 -0.023115765 0.026608044 0.11652088
-0.11464734 0.06661196 0.16835853 0.10268617 0.11681568 0.08201238 -0.012120059 -0.04425217
0.07997445 0.17764159 0.056399655 -0.009606117 0.020561304 0.05580926 -0.054149337 -0.044000845
0.06199886 -0.017416667 -0.028943071 -0.059213426 0.04489528 0.13067271 0.15583019 0.1866847
0.0033082336 0.057857428 -0.14357181 0.14190896 0.061921567 -0.00097510073 -0.023626897 0.06255953
-0.055081695 -0.037094977 0.18774389 0.11850936 -0.036362126 -0.059264343 0.09157837 -0.029686177
-0.11998221 -0.023440715 0.10355376 -0.09154022 0.09975446 -0.052162204 -0.009255582 -0.0554289
0.020109512 -0.045755062 0.044288848 -0.078995734 -0.06489057 0.020483566 0.0043970062 -0.048427097
0.05013277 0.10984849 0.020088809 -0.07899345 -0.12426515 0.035151295 0.07686486 0.12822469
0.1188928 -0.13023023 -0.017859645 0.013907064 -0.08335504 0.07699222 0.019639017 -0.16220954
0.12264238 0.099975154 0.1016483 0.07138334 0.09345011 0.10743382 0.08591458 -0.031488027
-0.051358737 0.17231345 0.014713209 0.021870868 0.044486236 0.12129877 0.09609122 0.054224014
-0.12723948 -0.11581297 0.0963686 0.019370398 0.004520204 0.12704153 0.0075922557 -0.1264275
0.10311202 -0.13759406 -0.09838438 -0.116286084 0.03047349 -0.050703287 -0.1708708 0.16762549
-0.05084145 0.14152849 -0.02800757 0.0015811397 0.06501651 0.0471257 -0.1075115 -0.080953375
0.110150285 -0.07792111 0.12497022 -0.03843224 0.0076825055 -0.113926984 0.10800661 -0.10515632
0.06788898 -0.1135456 0.032949552 0.05545581 -0.043858066 -0.007906862 0.176387 -0.06333971
0.062442053 0.0689351 0.041606106 -0.1478176 -0.07555286 0.16212001 -0.0071075303 0.006791568
0.09093048 -0.0008640311 -0.15845394 -0.03109527 -0.06542508 -0.08588747 0.08738147 0.032556552
-0.05819464 0.14376442 -0.038415298 0.13672124 -0.10059867 0.021014025 -0.15443078 -0.014220852
0.07968365 0.118512705 -0.038413424 -0.0099771265 -0.02301748 -0.047940526 0.08097035 -0.029713461
-0.16278645 -0.0006417106 -0.09540935 0.13700335 0.07770129 0.15866256 -0.019184869 0.11996256
0.15559976 0.0075310688 0.16246192 0.13465904 0.058023214 0.022604948 0.1476463 0.1112882
0.075316526 0.11376886 -0.019820446 0.08318405 -0.0028524443 -0.06465704 0.12274113 -0.01851248

sequential/dense_2/MatMul f4 [64, 256]
00000000: 8459 f93d 1259 b93d 182b 9a3c cee8 0cbd
00000010: c147 08be 509d 813c d27a d73d 223d 0abe
00000020: f4d3 00bd de53 cabd e289 9c3d 0063 fcbd
00000030: 95aa 07be 76ba b73d 4862 823d 70ca 193c
00000040: 4475 d83d e204 08be 7818 60bc 86e4 08bd
00000050: f030 21bd 80ef ddbb e0f9 533c 2458 0a3e
00000060: 488f fc3c f870 eb3c 242c 22bd 7732 a7bd
00000070: 8ecb 23bd 2845 c93c 20bc 7abd 484d a93c
00000080: fcdd 5b3d 0f9c dbbd 592e 8fbd 8446 d63d
00000090: b87f 7c3d 38ce 8e3c d2d2 82bd 686d 393d
000000a0: cc18 e93d d323 d4bd cc2b fcbd ba7f a73d
000000b0: bf91 efbd 221f 00be 1a23 d03d 96a5 c9bd
000000c0: 4eff 003e d2fa acbd f873 90bd 62af 27bd
000000d0: 6e8d b53d cc1b 343d 3caf 5b3d 725a 863d
000000e0: 40dc fcbd a4a1 5bbd 90f6 473d 3a71 04be
000000f0: 40b7 c63c 0049 ce3a 8ecf d8bd 48c5 5f3d
00000100: accb 863d eae6 a63d 084a e73c 5c8b 2cbd
00000110: 14a1 abbc d0c6 6cbc 5b91 cbbd ae1f bb3d
00000120: 7e60 e4bd df01 bcbd a677 e03d 201e b83c
00000130: cc41 0abd d6ab a9bd 685e 52bc 9018 54bc
00000140: 10a2 863c 8cef 4b3d 50ea 4fbc 7c56 273d
00000150: 96d5 dd3d d011 c2bd eea2 ae3d 680f 49bc
00000160: 5846 183d 801e a73a 14ec f2bc 9856 69bd
00000170: f4fe 08bd 30f0 9abd f460 6b3d c0cf 4cbb
00000180: dedb 5bbd d6c2 863d 423a 63bd 00c8 593d
00000190: bd8c 00be 348c dc3d 9c48 5ebd d0de f83d
000001a0: 785e 65bc 5445 e03d a4ee 73bd ac7f debd
000001b0: d493 023e 60d7 973d 6a8f d0bd 9191 87bd
000001c0: 589b 31bd 9c0d 613d e0ff f0bc 024a c33d
000001d0: c4c8 f1bc f8b6 7d3d f908 0abe 4abc 2fbd
000001e0: 79e5 04be 402e eb3b 26f5 df3d e048 0dbc
000001f0: 64a6 f5bd 1446 9fbd c6b0 c63d a758 a7bd
00000200: d43b eb3d 8010 433b 984b 0e3d 8caa e7bd
00000210: 76a3 28bd c2bd e6bd bbc0 d8bd 7c7c 473d
00000220: b8a0 b5bd b057 5bbc 0e79 b83d 70b3 543c
00000230: 922a 8a3d 1d45 e3bd 8080 da3c b2c3 f3bd
00000240: c090 29bb 204b 003d ccf9 28bd a61d 34bd
00000250: 68f0 df3c 44e9 9bbd 3c15 22bd d8c7 4abd
00000260: 5509 b6bd 747c f03d 687b efbc 10c5 be3c
00000270: 7ce2 c9bd 4421 57bd c0c5 a73c e20e 9ebd
00000280: 6a69 a03d 08d6 d9bc cc3f 47bd 54ec f73d
00000290: 22b4 9d3d 9086 693c a7a9 07be 5c90 6f3d
000002a0: 002a a8ba 94f8 713d 86f2 9dbd 7a0f 06bd
000002b0: 4646 85bd 8957 0abe 20f3 f8bb de5c c6bd
000002c0: 76de d03d 00b0 bdba 4854 67bd e8a5 a8bd
000002d0: d0c3 783c 207d 0b3e a8b1 093e 8442 abbc
000002e0: ab1e 09be 45af e9bd 4075 45bd 8447 f7bc
000002f0: 6ca0 d7bd 8047 94bc 1cbc 8bbc 181b dc3d
00000300: c08e 033d 982f 89bd 62a6 b53d 65eb 04be
00000310: a4f2 a4bd ef00 afbd 420a 3abd 4074 cabd
00000320: 9456 c9bd ae98 06bd 02f3 003e 340a 023e
00000330: 6875 ed3c b4ce ed3d 905d cdbc 5c66 a5bd
00000340: be76 033e 1ab7 e8bd 6923 0bbe b8c7 12bd
00000350: 913c 83bd 5be6 b4bd 5d47 cdbd d923 90bd
00000360: 6457 c83d 3ce6 763d 00ec c9b9 d4a6 09be
00000370: 7099 a73d 624a e1bd deac b13d 3e5b dbbd
00000380: f4f2 593d 38dc c1bd 0852 51bd 9fc9 d5bd
00000390: 72f5 93bd 4605 843d e0c5 443d a851 16bd
000003a0: 8a61 b53d 91a2 b5bd c0d6 e6bc 226f 093e
000003b0: fd28 b3bd fc9b 543d 9a53 ab3d 8085 553c
000003c0: 1838 d83d 801a b43d 803d 7d3d 0a5d 7cbd
000003d0: 865b 9d3d fac9 f3bd feaf 8abd c017 f5bb
000003e0: 6c8d 1b3d 7d77 e9bd fc99 b4bd 60ec 8e3b
000003f0: bd07 8abd 28d5 9f3d 88bc e83d ee85 c63d
0.12175277 0.09050192 0.018819377 -0.034401707 -0.13308622 0.015822083 0.10521473 -0.13499883
-0.031452134 -0.09879278 0.076434866 -0.1232357 -0.13248666 0.089711115 0.06366402 0.009386644
0.10569242 -0.13283113 -0.013677709 -0.033421062 -0.03935331 -0.0067729354 0.012937993 0.13510185
0.03083004 0.028740391 -0.039592877 -0.08163922 -0.039989047 0.02456911 -0.061214566 0.020666733
0.053678498 -0.10723125 -0.06991262 0.104626685 0.06164524 0.017432317 -0.06387867 0.045270354
0.11381683 -0.103583954 -0.12313041 0.08178659 -0.11697721 -0.12511876 0.10162945 -0.09846036
0.12597391 -0.08446278 -0.07053369 -0.040938742 0.08864866 0.04397182 0.053633913 0.0656022
-0.12346697 -0.05362095 0.048819125 -0.12933818 0.024257302 0.0015738308 -0.10586463 0.0546315
0.06581816 0.08149512 0.028233543 -0.04212509 -0.020950831 -0.0144516975 -0.09939834 0.09136902
-0.11151217 -0.091800444 0.10960321 0.022475302 -0.033754155 -0.08284728 -0.012839891 -0.012945309
0.0164347 0.049788997 -0.012690142 0.040853962 0.10831754 -0.09476054 0.0852717 -0.01227174
0.03717646 0.0012750179 -0.029653586 -0.056967348 -0.033446267 -0.075653434 0.05746551 -0.0031251758
-0.05367648 0.06580131 -0.05547548 0.05316925 -0.12553687 0.10768929 -0.054268464 0.12151873
-0.013999574 0.10950723 -0.059553757 -0.10864195 0.12751704 0.074141264 -0.10183604 -0.066195615
-0.043361038 0.05494462 -0.029418886 0.095356 -0.029514678 0.06194207 -0.13479985 -0.042904176
-0.12978162 0.0071771443 0.1093543 -0.008623332 -0.11994627 -0.07777038 0.097016856 -0.08171206
0.11486021 0.0029764473 0.03474006 -0.11311826 -0.041171513 -0.11266662 -0.105836354 0.048702702
-0.08868545 -0.013387606 0.09007464 0.012982234 0.06746401 -0.11097167 0.026672602 -0.1190256
-0.0025873631 0.031321645 -0.04125385 -0.043973587 0.027336314 -0.07612851 -0.039571032 -0.049506992
-0.08888499 0.117424875 -0.02923365 0.023287326 -0.098576516 -0.05252196 0.020480037 -0.077176824
0.07832606 -0.026591316 -0.048644826 0.12105623 0.07700373 0.014253274 -0.13248311 0.05848728
-0.00128299 0.059074953 -0.07712273 -0.032729603 -0.06507544 -0.13509955 -0.007597342 -0.09685682
0.10198681 -0.0014472008 -0.05647686 -0.08234769 0.015183404 0.1362195 0.13446677 -0.02090574
-0.13390605 -0.11410383 -0.04820752 -0.030185468 -0.10528645 -0.0181005 -0.017057471 0.10747355
0.03211856 -0.06698531 0.08869626 -0.12980421 -0.080540925 -0.085451 -0.04541994 -0.09885454
-0.098309666 -0.03286045 0.125927 0.12699205 0.028986648 0.11611691 -0.025069028 -0.08076164
0.12838265 -0.11363049 -0.13587727 -0.035834998 -0.064080365 -0.08832999 -0.10023377 -0.070380874
0.097822934 0.060278162 -0.0003851354 -0.13442546 0.08183563 -0.110005155 0.0867555 -0.107107624
0.053210214 -0.094658315 -0.05110362 -0.10438847 -0.07224549 0.06446318 0.04804027 -0.036698967
0.08856495 -0.08868898 -0.028178573 0.134213 -0.08748052 0.05190657 0.08365555 0.013032317
0.10557574 0.08794117 0.06182623 -0.061612166 0.07683472 -0.11903758 -0.06771849 -0.007479638
0.037976667 -0.11399744 -0.08818433 0.004361674 -0.06739757 0.07804328 0.113640845 0.09693514

sequential/dense_3/MatMul f4 [32, 64]
00000000: e82a 4abe 3d7b f43c d3c6 6f3e 0780 e7bd
00000010: 451f eb3d 023f fe3d c5d2 13be 3931 53be
00000020: 9340 18be f8b9 1a3e c70c 3cbe 4be2 0c3e
00000030: e966 9b3e 195c 04be ccc0 8fbe 1f56 3d3e
00000040: cdbf d53d 0571 05be 8efe 25be 2690 0d3e
00000050: 3746 e7bd 5cb7 74be 664e 91bd a8ca 13bd
00000060: 6017 fa3d 7429 683e 5805 473e 78a4 333d
00000070: 54b3 8c3e 0f5d 91bd af51 5c3e 3108 1abc
00000080: 8aa8 aebd 7f23 20be 442b 313e bc06 813c
00000090: be16 4fbe 7428 d9bd 2f22 913e 8f54 023e
000000a0: fcac 303e e670 ae3e 7726 173e 045a 9cbd
000000b0: 6f04 2fbe 68ae 5fbe 5e4d 753e 70e3 73bd
000000c0: 1d4d 903e 1d25 9a3c 4fbb 1ebe 1e6d c2bd
000000d0: 1604 673d eb30 57be b7e5 6bbe 5f75 9e3e
000000e0: 084a 92bc 087d 9a3d c7b0 6a3e 2522 923d
000000f0: 73f4 4c3e a40b 25bd 31e2 733e 2fa2 d63c
00000100: 503c a9bd 7489 063e 3101 e3bd ae39 8cbe
00000110: b50c 993e a76f 0fbe dea7 ce3d f77e 84bd
00000120: 9c92 d7bd 34db 943e e979 9f3c 98d9 59be
00000130: e60a a7be 6ec5 33be 086e 87be eb7a 0f3e
00000140: 813f e2bc d8a5 11bc 0111 163e ab6a 0ebc
00000150: f43d 6bbe 88d7 993e 617f 913e eefb 30be
00000160: 3a39 793e 4082 273e 2a3f 76be 64a9 60bd
00000170: 95e9 67be 6da1 703e ffcb d53d 7f7c fdbb
00000180: 5aad 7f3d f59e 343e 807a edbd 7627 41be
00000190: f124 b13e 921d b1bd fc15 923e 8e4e cb3d
000001a0: f8ff 15bd ceb9 6c3c d5a6 303d 56f5 413e
000001b0: 29e2 9abd f69c cc3d 1f25 2d3e 0a03 5e3e
000001c0: 16a0 a93e 11ba 543d 3ecc 423e bdff e0bd
000001d0: 553f 983e a590 223e 002d 2c3d 311c 213e
000001e0: b3e0 3a3d f9c0 babd 102b bd3d 0d21 763d
000001f0: 0bca 57be cad3 7a3d 76de 153c 0bc7 403e
00000200: 10fc cf3d 28d5 f03d 3576 64be eab1 893e
00000210: 864d f2bd bac7 58bd ffac 8f3d b150 c23d
00000220: 1273 173e 7c22 95be 7d7b 3a3e ad60 f83c
00000230: 27b2 1c3d 086d 3ebd f0d3 e639 5647 82be
00000240: 72d6 863e 3c88 e53d 565d 1abe bb31 52bd
00000250: a36c 5d3e 8f2d 16bd fd7f 77be 459a 41be
00000260: 2b80 813e 84d6 07be 290f 76be 5e41 50be
00000270: cd92 3cbe 571c 28be 6ed1 28bd ff72 c03b
00000280: bf0a 90bd d1f0 33be 78b6 0e3e c61c c9bd
00000290: 7696 a3bd 13f5 8dbe 6ef4 473e df83 f03d
000002a0: 3234 573e 795c 78be c3a0 823e 96e7 5dbd
000002b0: 550c a4bd 3705 303e 78ab 913d a0b1 e73d
000002c0: 16f0 953e 4206 45bd 7d68 11be 3885 f7bd
000002d0: ad92 9abd 5d1a 2abe 18ad 19bd 7263 af3d
000002e0: c31c a63b e8a4 b33d 722f 02be 5f28 a03e
000002f0: 4007 843e 94e7 c03d 0cd3 1bbe 67a7 833e
00000300: d817 d53d db61 7b3e 2c9d 873e c2c5 ab3d
00000310: 29f8 57be 8a55 61be cffe 65bd 5da1 5b3d
00000320: df3d 5fbe f8dc e53d 4af9 113e 990e 503e
00000330: c980 25be a256 73be ff12 6b3e 839f 80bc
00000340: 286f 123e 35e6 4c3e 20d9 fa3c 4112 4d3e
00000350: 08bf 153e a5f0 56be 3430 883e a1fd bc3d
00000360: d547 02bd 88c2 04be a0ec 9cbe 167d 20be
00000370: bd56 b33c a3ea d23d be1e fbbd 52dc 973d
00000380: 9a64 013e 326f 2cbe 20c2 7fbe e61a 213d
00000390: f491 9cbd 3053 a1bd 0997 73be 8865 4c3e
000003a0: 4b0e a4bc dd99 52ba b10a 563e 7ddc 48be
000003b0: 5ded 7a3c 96e6 1c3c e797 67be e65a 883e
000003c0: 14bb b93c 5c17 993d 0cdd 103e a9ae 2f3d
000003d0: 55b5 1cbd 2360 9b3e b886 1b3d 566f f3bd
000003e0: 355d 8c3e 225f ac3d f422 fbbc 5444 04bc
000003f0: 8a66 933c c2b3 4f3e 3e99 a4bd 040d 863e
-0.1974293 0.02984392 0.23415689 -0.11303716 0.114805736 0.124143615 -0.14435871 -0.20624246
-0.14868383 0.15110004 -0.18364249 0.13758199 0.30351952 -0.12925757 -0.2807678 0.18489884
0.10436974 -0.13031395 -0.16210386 0.1382452 -0.11292689 -0.23898071 -0.070950314 -0.03608194
0.1221149 0.22672063 0.19435632 0.04385802 0.27480567 -0.07097828 0.21515535 -0.009401367
-0.0852824 -0.1563854 0.17301661 0.015750282 -0.20223519 -0.10603419 0.28346393 0.12727569
0.17253488 0.3407051 0.14760767 -0.076343566 -0.17091535 -0.21843874 0.23955294 -0.059543073
0.28183833 0.018816525 -0.1550114 -0.09493469 0.05640038 -0.21014754 -0.23036848 0.30948922
-0.017857566 0.07543379 0.22918998 0.07135419 0.20015125 -0.040294304 0.23816754 0.026200382
-0.08263457 0.13138372 -0.110842116 -0.27387756 0.29892507 -0.14007436 0.10090612 -0.06469529
-0.105260104 0.2907349 0.019467311 -0.21274412 -0.32625502 -0.17555782 -0.26451135 0.14011733
-0.027618172 -0.008889638 0.14654924 -0.008692424 -0.22972852 0.3004725 0.28417495 -0.17283604
0.24338236 0.1635828 -0.24047533 -0.054849043 -0.22647698 0.23499079 0.104393 -0.0077357884
0.06242118 0.17638762 -0.11595631 -0.1886271 0.34598497 -0.08648218 0.28532398 0.099270925
-0.036621064 0.014448596 0.043127853 0.18941244 -0.07562668 0.099908754 0.16908692 0.21680847
0.33129948 0.05193526 0.19023225 -0.10986278 0.29735819 0.1587549 0.042035103 0.1573341
0.045624446 -0.09118838 0.09236729 0.060090113 -0.21073167 0.061237134 0.009147277 0.18825929
0.10155499 0.11759406 -0.22310717 0.2689355 -0.11831193 -0.05292485 0.07015418 0.09488047
0.1478999 -0.29127872 0.1821117 0.030319536 0.038255837 -0.0464907 0.00044026924 -0.2544505
0.26335484 0.11207625 -0.15074667 -0.051316958 0.21623473 -0.03666454 -0.24169917 -0.18906505
0.25293097 -0.13265425 -0.2402922 -0.20337436 -0.18415375 -0.16417061 -0.041215353 0.0058730836
-0.070333 -0.17572333 0.13936794 -0.09819941 -0.079876825 -0.2772604 0.19526836 0.117439024
0.21016005 -0.24254026 0.25513276 -0.054175936 -0.08010165 0.1718949 0.07112783 0.11313176
0.29284734 -0.04810167 -0.14200015 -0.12085956 -0.075475074 -0.1661162 -0.03751859 0.085638896
0.0050693466 0.08771688 -0.12713411 0.312808 0.2578678 0.0941917 -0.15217227 0.25713655
0.104049385 0.24549048 0.264871 0.08387329 -0.2109076 -0.22005287 -0.056151208 0.053620685
-0.21800946 0.11223787 0.14255252 0.20318069 -0.16162409 -0.23763517 0.22956465 -0.015701061
0.14300215 0.20009692 0.030621111 0.20026495 0.14623654 -0.20990236 0.26599276 0.092280634
-0.031806786 -0.12964833 -0.3064928 -0.15672716 0.021891946 0.1029866 -0.12261723 0.0741507
0.12636033 -0.16839293 -0.24976397 0.039332293 -0.07645026 -0.07877195 -0.23788084 0.19960606
-0.020026347 -0.00080337917 0.20902516 -0.1961536 0.015315381 0.00957646 -0.2261654 0.2663185
0.022672214 0.074751586 0.14146823 0.04289118 -0.03825887 0.30346784 0.037970275 -0.1188647
0.2741486 0.08416583 -0.030656315 -0.008072931 0.01799323 0.20283416 -0.08037041 0.26181805

sequential/dense_4/MatMul f4 [16, 32]
00000000: 4416 e73d 6dad d0be baa1 0f3e 9671 78bd
00000010: b4bc 51be 2e9d 953e 4875 873d 23ca b1bc
00000020: 517a 843e a0cb 023e 0dee 59be f23f 5f3e
00000030: 2320 423e e670 f03e 0a83 e53a 3554 513e
00000040: ff9e ebbe 8c05 803d 3077 5b3e a2d6 423e
00000050: 9cce 973d 910d 97be 90a4 6ebe 0b90 a83e
00000060: 92c6 d5be 4c71 ac3e a6ee de3c bb14 82be
00000070: afb2 dfbe 1447 ad3d fbe5 cb3e 22c1 763d
00000080: 6871 793d 70e5 39bd 36e0 80be b488 1ebe
00000090: a09d 123e 8e34 12be c0dc 963d 7012 ba3c
000000a0: 004b 91be ac1a 6cbe f4bd 893d b2e0 093e
000000b0: 5c8d d33d 5f2a b3be 645c 92bd 2ee8 d9bd
000000c0: 986a 85be 9451 f43d 485a 443d 786e 703d
000000d0: ec51 883d 6468 c8bd 043e 82be 2f07 aebe
000000e0: 520d 143e 74b5 8abe ee50 afbe 7025 b1bc
000000f0: 8ec5 393e fcc7 90be c21b 1b3e ad32 a13e
00000100: 44aa d33e e447 8f3e 83fb 8e3d 9ca8 c13c
00000110: 0a9a 823e b26e 1fbe 88a0 913e 61e7 aebe
00000120: 2127 8cbe 9a15 cf3e 4385 203e 22fa 49be
00000130: 5eb4 083e 88e8 5ebe 20ef 9fbd 5018 053d
00000140: 585d c5be 789a a43e bd93 3ebc 35bb 9a3d
00000150: 1692 c4be 39a8 823d c4cf 5f3e 9245 033e
00000160: 25ba 713e 0a8d d63e 2944 2e3d 0c81 72bd
00000170: 3ae2 6dbe ac0b b83e c4d6 893e 791f 66be
00000180: f02c 363e 2e3a fb3d 3d88 3abe 8f99 c9be
00000190: 81b4 32be 77c2 42be b951 863e 4727 853e
000001a0: bb34 963e 27ec dbbd 487e cf3e 3cdd 1abe
000001b0: da06 453e cd17 45bd 2b8a cebe 724e 773e
000001c0: 49e9 7fbe 43c3 d43e d7c5 9dbe 08b7 f83d
000001d0: 8c48 283e 4eed 253e 2564 6fbe 1354 a1be
000001e0: ead9 2f3d 24bc aebb 0782 5e3e f2b2 afbe
000001f0: b118 b13b 73b3 543e d4b9 95be 32d3 8fbd
00000200: 38a9 53be 0546 81be 4d7c c0be a847 b5be
00000210: 3275 b03e 8082 e1bc 5bcd 92be 9b6c 6b3e
00000220: 423c 3ebd 7e16 adbd 4b06 c0bc 2690 c03e
00000230: b1bb 52be 2b0c c13e e50d 523e d6ef 82be
00000240: 585c 6ebe aadf 04bd dc48 c43d 0741 c33c
00000250: 0817 133e 86a9 713e d519 00be 9999 803e
00000260: 3596 7fbd c2c9 9bbd e545 88be 0504 97bd
00000270: e1f8 0a3e 0a96 8abe 5a9e 953e 5424 2f3e
00000280: da38 a33d 8ddd 933c cffd 82be 161a eebc
00000290: db67 94be e8f8 a63e 8f7e 703c f1b5 20be
000002a0: 4cc8 843e 3d42 fc3c 65df 573e d095 80be
000002b0: f8bd 47be 99bf 533e 6468 313e 3cd8 1dbe
000002c0: e2a7 44be 81f2 91bd 4ea0 9bbe 440e 083c
000002d0: edf8 12bd 60cc 0b3e b76e d23d a880 d03d
000002e0: 0876 2b3e d943 aabe 9d44 e6bd 2763 70be
000002f0: 752d f3bd 579c 0d3d 01af 94be 7920 c73e
00000300: 6f31 adbd 8845 e33e d1d2 bf3e bcd3 f83d
00000310: 2563 4ebe a5a3 c4bd 8d4b 503e 97dd abbe
00000320: ee74 dcbc a5b5 4f3e 64e2 acbe 0da4 293e
00000330: d8e3 98be b024 75be 0cea cb3e 40c1 a53e
00000340: bac0 e13d 87e5 1a3c 7575 983e 2a74 183e
00000350: f1e7 dc3c 2bb7 723e 0184 94bc 0019 2cbe
00000360: 3b55 9a3d d7a3 7e3e 680e 853e e5f1 dabe
00000370: 4b3c 2f3e d633 0cbe 7ff5 03be abc0 a73e
00000380: bf2d 343e ca7b 9d3d 4910 b0be 7e98 2a3e
00000390: 7001 2e3d 252d a7be 8b0f 0fbe bb2e cb3d
000003a0: 3587 823d 010b 423d f6b1 9a3e 1345 ffbd
000003b0: a6a4 c43d f73d 06be d4bb 75be eab7 b53e
000003c0: 9654 4abd a8b1 8e3c e456 bd3d 946a 8d3e
000003d0: 9566 4bbe 62af f0bd 918d 073e a0ad 88bd
000003e0: 790e 54be 680e 0cbe 044f 32be 99ac 9fbd
000003f0: 8040 543e 2d35 96bd ccb2 973e 2689 18be
0.11283544 -0.40757313 0.14026538 -0.0606552 -0.20482141 0.2922148 0.066141665 -0.021702832
0.2587457 0.1277299 -0.21282215 0.21801737 0.18957572 0.46961135 0.0017510366 0.20442279
-0.46019742 0.06251058 0.21432185 0.19027188 0.074124545 -0.29502538 -0.23304963 0.32922396
-0.4175306 0.3368019 0.027213406 -0.2540644 -0.43691012 0.08460823 0.398239 0.06024278
0.06089917 -0.045384824 -0.2517106 -0.15481836 0.14317942 -0.1427786 0.073663235 0.02271387
-0.28377533 -0.2305705 0.06725684 0.1346462 0.103296965 -0.34993264 -0.07146528 -0.10639988
-0.26057887 0.11929622 0.04793766 0.0586991 0.0665625 -0.09785536 -0.2543794 -0.33989856
0.14458206 -0.27091563 -0.34241432 -0.021624297 0.18141767 -0.28277576 0.15147308 0.31483975
0.4134084 0.27984536 0.06981566 0.02363997 0.25508147 -0.1556957 0.28442788 -0.34160903
-0.27373603 0.40446168 0.15675835 -0.19724324 0.13350055 -0.21768391 -0.07809281 0.03249389
-0.38547778 0.321491 -0.011631903 0.07555238 -0.38392705 0.06379742 0.218566 0.12819508
0.23606165 0.4190448 0.04254547 -0.0592051 -0.2323083 0.35946405 0.26921666 -0.22472943
0.1779058 0.12266956 -0.18216033 -0.39374968 -0.1745167 -0.19019495 0.26234224 0.2600653
0.29337105 -0.10738402 0.40526032 -0.15123457 0.19240895 -0.0481184 -0.4033979 0.24151018
-0.24991335 0.41555223 -0.30815002 0.121442854 0.16433924 0.16203806 -0.23378046 -0.31509456
0.04293243 -0.0053324867 0.21729289 -0.34316212 0.005404555 0.2077158 -0.29243338 -0.07022704
-0.2067002 -0.25248733 -0.37594834 -0.35406232 0.34464413 -0.027528048 -0.286723 0.22990648
-0.046444185 -0.08451556 -0.0234405 0.37609977 -0.20579411 0.37704596 0.20513113 -0.25573605
-0.23277414 -0.032439865 0.09584209 0.023834718 0.14364254 0.23599824 -0.12509854 0.25117186
-0.062399108 -0.076068416 -0.26615825 -0.073738135 0.13571502 -0.27067596 0.29222375 0.17103702
0.07969828 0.01804998 -0.25584266 -0.029065173 -0.28985485 0.32611775 0.014678611 -0.15694405
0.25934064 0.030793304 0.21081312 -0.25114298 -0.19506061 0.20678557 0.17324978 -0.15414518
-0.19204667 -0.07126332 -0.3039574 0.008304182 -0.035881925 0.13652182 0.102750234 0.10180789
0.16744244 -0.3325489 -0.11243556 -0.23475324 -0.118739046 0.034572925 -0.29039767 0.38891962
-0.08456694 0.44388986 0.37465528 0.1214976 -0.20155008 -0.09601525 0.2034132 -0.33567497
-0.026911225 0.20284136 -0.33766472 0.16566487 -0.2986133 -0.23939776 0.39827 0.32374
0.11023088 0.009454138 0.29777113 0.14888063 0.026966067 0.23702686 -0.01812935 -0.16806412
0.07535788 0.24867187 0.25987554 -0.42762676 0.17112844 -0.13691649 -0.12886618 0.32764181
0.17595576 0.076896265 -0.34387425 0.16659734 0.04248184 -0.3265163 -0.13970773 0.099210225
0.06373445 0.047373775 0.30213898 -0.12464347 0.09601717 -0.13109575 -0.23997432 0.35491878
-0.049397074 0.017418697 0.09245089 0.27620375 -0.1986335 -0.117522016 0.13237597 -0.06673741
-0.20708646 -0.1367737 -0.17412955 -0.07796592 0.2072773 -0.07334361 0.296286 -0.14896068
